wbi_teaching_applied_ml_utils/datasets/exercise5/weights.npz (npz, 80506 bytes, 4 tensors)

W1 f4 [784, 25]
0	0x3c8e1d38	0.017347917
1	0x3d7926c4	0.060827985
2	0x3bcb8af0	0.006211631
3	0xbd7c7327	-0.061633255
4	0x3c0f5a88	0.008749612
5	0x3d8bd8ba	0.06828447
6	0x3d847ed0	0.064695
7	0x3da246b0	0.07923639
8	0x3d9bb08c	0.07602033
9	0x3da168a2	0.07881285
10	0x3d7936e8	0.06084338
11	0x3d9cb732	0.07652129
12	0xbd06e364	-0.0329317
13	0x3d9c9992	0.07646479
14	0x3b832ab0	0.0040028915
15	0x3c7dff78	0.015502803
16	0x3915f000	0.00014299154
17	0x3cd84b08	0.026402965
18	0xbd953bcb	-0.07286795
19	0x3d8cc5c0	0.06873655
20	0xbd13a9a0	-0.03605044
21	0x3cc12610	0.02357772
22	0xbd1598aa	-0.036522545
23	0x3d3d28a8	0.04618135
24	0xbd658cc4	-0.056042448
25	0xbd10a0da	-0.03530965
26	0x3d9d6090	0.076844335
27	0x3aeeb440	0.0018211678
28	0x3c15a6c0	0.009133995
29	0x3d7a4df8	0.061109513
30	0x3d762b78	0.06010005
31	0x3d5f1704	0.05446531
32	0xbd765998	-0.060144037
33	0xbd877ba6	-0.06615381
34	0x3d6bf560	0.057607055
35	0x3ceac574	0.028658606
36	0xbce240d0	-0.027618796
37	0xbd8d5c1a	-0.069023326
38	0x3ccc458c	0.024935506
39	0xbd895137	-0.067049436
40	0xbd2a45b7	-0.04157039
41	0x3d78b530	0.06071967
42	0xbd4a9e2b	-0.049467247
43	0x3d2a2d94	0.041547373
44	0x3daa19da	0.08305712
45	0x3d1e4a3a	0.038645007
46	0xbd7e789a	-0.062126733
47	0x3d3dd9ac	0.046350166
48	0x3daa3e7c	0.08312699
49	0xbd807300	-0.062719345
50	0xbd6b74df	-0.057484504
51	0x3b566da0	0.003271915
52	0xbd392b69	-0.045207415
53	0xbbb593e0	-0.0055413097
54	0x3c47ad58	0.012187324
55	0xbd9bf05f	-0.076142065
56	0x3d28b1c0	0.04118514
57	0xbd17836a	-0.03699056
58	0xbd3ed80d	-0.04659276
59	0x3cb19298	0.021676347
60	0x3da221b0	0.07916582
61	0xbd829272	-0.063755885
62	0x3da48114	0.08032432
63	0x3d889184	0.0666838
64	0x3d00941c	0.031391248
65	0x3d9bb9c8	0.07603794
66	0x3a56cd80	0.0008194074
67	0xbd94ba11	-0.07262052
68	0xbd8fc14c	-0.0701929
69	0x3cf07ff8	0.029357895
70	0xbc9f880c	-0.019474052
71	0xbc231c50	-0.009955481
72	0xbd7d12e8	-0.06178561
73	0xbcf0bc6e	-0.029386725
74	0xbdadc25e	-0.08484338
75	0xbdacfcb9	-0.084466405
76	0x3d564bd8	0.052318424
77	0x3d0a013e	0.03369259
78	0xbd9a5f1e	-0.075376734
79	0xbc2e1f70	-0.0106276125
80	0x3d3856b8	0.045004576
81	0x3bf0cd30	0.007348679
82	0x3d69d4a8	0.05708757
83	0x3d0b0b50	0.033946335
84	0x3da4861c	0.08033392
85	0x3cd4ae3c	0.025961988
86	0xbd255b78	-0.040370435
87	0x3d942958	0.07234448
88	0xbca814e8	-0.020517781
89	0x3d820168	0.063479245
90	0xbc94a55c	-0.018145256
91	0x3c92f580	0.01793933
92	0x3d8ba0fe	0.06817816
93	0xbc5ace40	-0.013354838
94	0x3cdf9f94	0.027297772
95	0xbc218cd0	-0.0098602325
96	0xbd1d6f39	-0.03843615
97	0x3d7ada68	0.061243445
98	0x3d4c4984	0.049874797
99	0xbd88ec14	-0.06685653
100	0x3c8e4afc	0.01736974
101	0x3b1a8460	0.0023577437
102	0x3d979912	0.07402243
103	0xbd58c6b9	-0.05292389
104	0x3d80f770	0.06297195
105	0x3d468d70	0.04847473
106	0xbd83b77a	-0.0643148
107	0xbc479958	-0.012182556
108	0x3b96f300	0.0046066046
109	0xbd9c1511	-0.076212056
110	0x3c182858	0.009286962
111	0xbd8597bc	-0.06523082
112	0x3d7a03cc	0.061038777
113	0xbca92f34	-0.020652391
114	0x3d2eec60	0.042705894
115	0xbd3051fe	-0.043046944
116	0xbce24058	-0.027618572
117	0x3d8b3bb6	0.06798498
118	0x3d19b054	0.037521675
119	0xbd4e205a	-0.05032382
120	0xbc117af8	-0.008879416
121	0xbcbad078	-0.022804484
122	0x3d087fdc	0.03332506
123	0xbd5bea58	-0.053690284
124	0x3d77d9c0	0.060510397
125	0x3d81a926	0.06331091
126	0xbd9d21bd	-0.07672451
127	0x3d6b5154	0.057450607
128	0x3c6cbcd8	0.014449321
129	0x3d991cd8	0.07476205
130	0xbd3ee82d	-0.04660814
131	0x3d020ff0	0.03175348
132	0x3d2f6b40	0.04282689
133	0xbd67364d	-0.05644827
134	0x3c578fa0	0.013156801
135	0x3c93d8a4	0.018047638
136	0x3d8cc36a	0.0687321
137	0x3cc87310	0.024468929
138	0xbda88553	-0.082285546
139	0x3d717c00	0.058956146
140	0xbc2e4e78	-0.010638826
141	0x3d571228	0.05250755
142	0xbd290ce3	-0.041272055
143	0x3d8ed578	0.0697431
144	0x3d91f02a	0.07125886
145	0x3d4ca6a8	0.049963623
146	0xbca514e4	-0.020151563
147	0xbd22e072	-0.03976483
148	0xbd64b432	-0.05583591
149	0x3d49797c	0.049188122
150	0x3d526f84	0.05137588
151	0x3d2faa3c	0.042886958
152	0x3c402d50	0.011729553
153	0xbc3f9bf0	-0.011694893
154	0x3c0b9970	0.008520469
155	0xbd7ec22c	-0.062196895
156	0x3d4642dc	0.048403606
157	0xbd62f439	-0.05540869
158	0xbd99c2c7	-0.07507854
159	0xbd464b46	-0.04841163
160	0x3d4762ac	0.048678085
161	0xbd5e549e	-0.054279916
162	0xbda4d74c	-0.08048877
163	0x3d07676e	0.033057623
164	0xbd230fe0	-0.03981006
165	0x3d322f48	0.043502122
166	0xbdaa5b89	-0.0831824
167	0xbc924d30	-0.017859071
168	0x3d786b20	0.060649037
169	0x3dab6330	0.08368528
170	0x3d8c7dc0	0.068599224
171	0x3d96c8ce	0.07362519
172	0x3ce469c0	0.027882457
173	0x3d8e1258	0.069370925
174	0x3d85cc02	0.06533052
175	0xbcbda800	-0.023151398
176	0x3ce99904	0.028515346
177	0x3da7543a	0.08170362
178	0x3cd26714	0.025683917
179	0xbd2cb81b	-0.042167764
180	0x3b196c60	0.0023410544
181	0xbb23db20	-0.0025002435
182	0x3daa99c8	0.08330113
183	0x3d79f218	0.061021894
184	0x3cf3e43c	0.029771917
185	0x3c094930	0.008379266
186	0x3cf3fa80	0.029782534
187	0xbd98c121	-0.074587114
188	0xbd1ac950	-0.037789643
189	0xbc04cf48	-0.00810606
190	0xbdad29f2	-0.08455266
191	0xbda17a28	-0.078846276
192	0x3c86d134	0.016457178
193	0xbc93bfcc	-0.018035792
194	0xbcbf3e88	-0.023345247
195	0xbcc83340	-0.0244385
196	0xbd7646dc	-0.06012617
197	0x3d26fee8	0.04077044
198	0x3d1152ec	0.03547947
199	0xbb9f4940	-0.004861027
200	0xbcea0714	-0.028567828
201	0xbc4aa300	-0.012367964
202	0x3d8bf30a	0.068334654
203	0x3b42b640	0.002971068
204	0xbd1c20f4	-0.038117364
205	0xbd6b5528	-0.05745426
206	0xbc5ffba0	-0.013670832
207	0x3d88ab48	0.06673294
208	0xbd8cd64b	-0.06876811
209	0x3da68918	0.08131617
210	0xbc58eae0	-0.013239592
211	0xbcb4f824	-0.022090979
212	0xbced79ee	-0.028988805
213	0xbc70a0c0	-0.014686763
214	0x3d051474	0.03249021
215	0x3c6e5e60	0.014548868
216	0x3d2f9f58	0.04287657
217	0x3d9cf748	0.07664353
218	0x3d56c9bc	0.052438483
219	0x3d3b852c	0.0457813
220	0xbc4dc068	-0.01255808
221	0x3c944e54	0.018103756
222	0xbd0862d1	-0.033297364
223	0x3d851ab0	0.06499231
224	0x3d3bed1c	0.045880422
225	0x3d34815c	0.04406868
226	0xbda3dcdc	-0.0800111
227	0xbca82848	-0.02052702
228	0x3d8daa5a	0.069172576
229	0x3c180720	0.0092790425
230	0xbd1a2fa2	-0.037643082
231	0xbd216bd4	-0.039409474
232	0x3d36f5e4	0.044668093
233	0x3b37ff40	0.0028075725
234	0x3d8e89ca	0.06959875
235	0xbd598408	-0.05310443
236	0x3cedddf4	0.0290365
237	0xbccf4410	-0.02530101
238	0x3d802d04	0.06258586
239	0x3d377f18	0.04479894
240	0xbda5389f	-0.0806744
241	0x3d307884	0.043083683
242	0xbca688ac	-0.020328842
243	0x3b0722e0	0.0020620152
244	0xbca60d38	-0.020269975
245	0x3cb616a8	0.0222276
246	0xbc981fc8	-0.018569842
247	0xbd51f068	-0.05125466
248	0xbc58c3c8	-0.013230272
249	0x3da9e474	0.08295527
250	0xbdafc894	-0.08583179
251	0x3da6a282	0.08136465
252	0x3d89eed6	0.067350075
253	0x3d0adf8a	0.03390459
254	0xbc50a410	-0.012734428
255	0xbd9417cb	-0.07231101

b1 f4 [25]
0	0x3cc0c380	0.023530722
1	0x3f063562	0.52425206
2	0x3dd59c02	0.10430147
3	0x3ee86ba9	0.45394638
4	0xbe4c87f5	-0.19973738
5	0x3e7f35e3	0.249229
6	0xbebbed05	-0.3670427
7	0xbe442692	-0.19155338
8	0xbe527d75	-0.2055567
9	0x3e12beeb	0.14330642
10	0xbdc0d2af	-0.09415185
11	0xbf34c299	-0.7060943
12	0x3df03166	0.11728172
13	0x3ea5eaca	0.32405692
14	0x3e8db70a	0.2767871
15	0x3ef52604	0.47880566
16	0xbe01133f	-0.12604998
17	0x3f5aab97	0.85418075
18	0xbf688d0b	-0.90840214
19	0x3d4d62b8	0.050142974
20	0xbded2961	-0.11580158
21	0xbd013b02	-0.031550415
22	0xbee27d61	-0.44236282
23	0xbeafea70	-0.3435855
24	0x3d8983c0	0.067145824

W2 f4 [25, 10]
0	0x3f9d9839	1.231208
1	0x3f49fdb2	0.78902733
2	0x3e84cfd4	0.2593981
3	0x3fb1351d	1.3844334
4	0xbf337e1e	-0.70114315
5	0xc0409387	-3.0090044
6	0x3f656ba4	0.8961737
7	0xbf677538	-0.90413237
8	0x3dbc44ca	0.09192808
9	0xbf812987	-1.0090798
10	0x3e3111b9	0.17291917
11	0xbfad84b0	-1.3556118
12	0x3eedf86b	0.4647859
13	0x3f692e55	0.9108632
14	0xbf49a489	-0.78766686
15	0x3f9cdb26	1.2254379
16	0xbf8fe315	-1.1241175
17	0xbfec27fc	-1.8449702
18	0x3fa02b68	1.2513247
19	0xbf6ecb4b	-0.9327895
20	0x3f97f4a4	1.1871533
21	0x3f6d9cbe	0.92817295
22	0xc000f0ef	-2.0147054
23	0xbfdb175d	-1.7116505
24	0xbf5ff1ab	-0.8747813
25	0x3f853a6e	1.0408456
26	0x3e8645be	0.26225084
27	0x3e3e4725	0.18581827
28	0xbfbf8ebc	-1.4965434
29	0x3fce4a89	1.6116496
30	0x3f844075	1.0332171
31	0xbfb7c8a0	-1.4358101
32	0x40042333	2.0646484
33	0xbfd4f419	-1.6636993
34	0xbd204d63	-0.0391363
35	0xbf2b3d7b	-0.66890687
36	0x3f0ce977	0.5504374
37	0x3fc3f027	1.5307664
38	0xc01beddd	-2.436393
39	0xbf05e1a4	-0.52297425
40	0xc0238b88	-2.5553913
41	0xc00b0cb3	-2.17265
42	0xbff59017	-1.9184598
43	0x3fa97771	1.3239576
44	0x3f25bcda	0.6474129
45	0xbdba2860	-0.09089732
46	0xbf1121cc	-0.56692195
47	0xbfcd22d1	-1.602625
48	0x3fb1230e	1.3838823
49	0x3f914698	1.1349669
50	0x3f6cd4a3	0.9251196
51	0xbf99a869	-1.200452
52	0xc00b9745	-2.1811078
53	0xbfb63241	-1.4234086
54	0x3f005071	0.50122744
55	0x3f22d048	0.6359906
56	0x3fa0efe7	1.2573212
57	0x3e9391eb	0.28822264
58	0xc009fc2a	-2.1560159
59	0x3f94ecb9	1.1634742
60	0xbfcbeb6f	-1.5931224
61	0x3fb80776	1.4377277
62	0x3fe72a94	1.8059869
63	0xc00e09f3	-2.2193573
64	0x3fb6fe55	1.4296366
65	0xbf166dae	-0.5876111
66	0x3ea2daf8	0.31807685
67	0xbe271ab5	-0.16318782
68	0xbf56f74d	-0.839711
69	0xbe82ca65	-0.2554504
70	0xbf71205f	-0.9419002
71	0xbf7c3fdc	-0.9853494
72	0x3f1c3fb7	0.6103472
73	0x3feaad59	1.8334152
74	0xbfc9894d	-1.5745026
75	0x3fa8cc3d	1.3187329
76	0x3f90c5e7	1.1310395
77	0xc02b97a4	-2.6811304
78	0xbf9f94f4	-1.2467332
79	0xbfbbe80f	-1.4680194
80	0xc0099958	-2.1499844
81	0x3fb204f1	1.3907758
82	0x3f81cd2a	1.0140736
83	0xbfb76767	-1.4328431
84	0xbfd66c7c	-1.6751857
85	0x3eac734c	0.33681715
86	0x3f3e8e71	0.744361
87	0xbf9381e1	-1.1524011
88	0x3f9847f7	1.1896962
89	0xbff8e8b2	-1.9446013
90	0x3fb12d30	1.3841915
91	0xbfbadbeb	-1.4598364
92	0x3fb025a0	1.3761482
93	0xbfe71a6d	-1.805494
94	0xbf810fd9	-1.0082961
95	0xbe290a8e	-0.16507933
96	0x3f7a63c6	0.9780849
97	0xc041a180	-3.0254822
98	0x3fc0bae9	1.505704
99	0xbfa44eec	-1.2836585
100	0xbfc85e4f	-1.5653781
101	0x3f7c9633	0.98666686
102	0xbfe6ff8e	-1.8046739
103	0x3edb931c	0.42885673
104	0xbfed7834	-1.8552308
105	0xbea84fa8	-0.32873273
106	0xc00a5491	-2.1614115
107	0x3f38900e	0.7209481
108	0x3fa614e7	1.2975129
109	0x3f70739e	0.9392642
110	0xbf8a06a2	-1.0783274
111	0x3f6f5500	0.93489075
112	0xbf02d518	-0.51106405
113	0xbf610c7c	-0.87909675
114	0x3fd75b4e	1.6824739
115	0xbfb4c3b3	-1.4122223
116	0x3fa6e2fb	1.3038019
117	0xbf0fb729	-0.56138855
118	0x3f660c0e	0.89862144
119	0xc01f35ec	-2.4876661
120	0xbfd812f3	-1.6880783
121	0xc01b98ec	-2.4312086
122	0x3fd1d21b	1.6392244
123	0xbe46935c	-0.1939215
124	0x3fb210db	1.3911394
125	0xc0431520	-3.0481644
126	0xbe86d99d	-0.263379
127	0xbe356d1e	-0.17717406
128	0x3ee72107	0.45142385
129	0x3f772329	0.96538025
130	0x3f3ee385	0.7456592
131	0xbfd577ed	-1.6677223
132	0x3f210312	0.6289531
133	0x3f569d54	0.83833814
134	0xbfc61274	-1.5474381
135	0xbfb63225	-1.4234053
136	0xbff17d43	-1.8866352
137	0x3f38773a	0.72056925
138	0xbf82fc88	-1.0233316
139	0x3f940a31	1.156561
140	0x3e9859dd	0.2975606
141	0xc0095b4a	-2.1461968
142	0xbef654b6	-0.48111504
143	0xbfaad698	-1.3346739
144	0x3fa8aeb8	1.317832
145	0x3f7acd6d	0.97969705
146	0xc0000857	-2.000509
147	0x3f210274	0.6289437
148	0x3e52acaa	0.20573679
149	0x3f1c964b	0.6116683
150	0x3f94eafe	1.1634214
151	0xbfb073cc	-1.3785338
152	0xbf85757f	-1.0426482
153	0xbfa7658d	-1.3077866
154	0x3eb9d6e5	0.36296764
155	0x3a39613b	0.00070716784
156	0xc00ab899	-2.167517
157	0xbd233a68	-0.039850622
158	0x3f90becc	1.1308227
159	0x3f9d3679	1.2282249
160	0xbe4cc311	-0.19996287
161	0x3f980f9a	1.1879761
162	0x3f3734e9	0.7156511
163	0x3efd56ee	0.49480385
164	0xbfb16f3e	-1.3862073
165	0x3faab12f	1.3335322
166	0xbfacbf80	-1.3495941
167	0x3f94cdc3	1.1625293
168	0xc017f42d	-2.3742783
169	0xbfdc6db2	-1.7220976
170	0x3f6419b5	0.89101726
171	0x3f7966f3	0.97422713
172	0x3f38724b	0.720494
173	0x3f264686	0.6495136
174	0xc0077b44	-2.1168985
175	0x3f67efff	0.9060058
176	0xbfd4101e	-1.6567419
177	0xbff6eb93	-1.9290642
178	0x3f31f6a9	0.69517
179	0xbd9f3f13	-0.07775702
180	0xbd807d1c	-0.06273863
181	0x3fd150c9	1.6352779
182	0xbf26c35c	-0.65141845
183	0x3e9f197e	0.31074136
184	0x40121ed0	2.2831306
185	0xbef95b26	-0.48702353
186	0xbf8c3f00	-1.0956726
187	0xbf885372	-1.0650465
188	0xc00bc680	-2.1839905
189	0xbf125255	-0.5715688
190	0xc014c277	-2.3243692
191	0x3f3c201d	0.734865
192	0xbf951988	-1.1648417
193	0x3f621f69	0.8832918
194	0xbfb78c50	-1.4339695
195	0x3f60219e	0.87551296
196	0xbb3aba7c	-0.00284925
197	0x3fcbb24b	1.5913786
198	0x3e1fdf30	0.15612483
199	0xbfc98fe7	-1.574704
200	0x3f9dcaa5	1.2327467
201	0xc007ca20	-2.1217117
202	0xbf0f8f75	-0.56078273
203	0x3de4807e	0.111573204
204	0xbfb200f5	-1.3906542
205	0xbfe0dbaf	-1.7567042
206	0x3f33f739	0.70299107
207	0x3fcd7481	1.6051179
208	0x3ff0e3bf	1.8819503
209	0xbfd64671	-1.6740247
210	0xbfffc8e6	-1.9983184
211	0x3efc78be	0.4931087
212	0x3f0104b7	0.5039782
213	0x3f934b90	1.1507435
214	0xbfb76d4e	-1.4330232
215	0xbfc851f3	-1.5650009
216	0x3eb19819	0.34686354
217	0x3f5c991f	0.86171144
218	0xbfbb053d	-1.4610974
219	0x3f5e7e3a	0.86911356
220	0xbf8f83de	-1.1212118
221	0x3f9518ee	1.1648233
222	0xbf87bfd2	-1.0605414
223	0x3fc7b5b5	1.5602328
224	0x3f0042b0	0.5010176
225	0xc00e1675	-2.2201207
226	0xbe738731	-0.2378204
227	0x3f926b2e	1.1438959
228	0xbf85f02b	-1.0463918
229	0xbd983fcc	-0.07434043
230	0x3f0c9056	0.5490774
231	0xbfdcc348	-1.7247095
232	0xbfd21c2b	-1.6414846
233	0x3d9f44cd	0.077767946
234	0x3fadf63e	1.3590772
235	0x3fd11f10	1.6337605
236	0x3fa82b7c	1.313827
237	0xbdb355a9	-0.08756573
238	0xbf46c700	-0.776474
239	0xc00826d1	-2.1273692
240	0xbfff8ad3	-1.9964241
241	0xbec8a28a	-0.39186507
242	0xbf4827df	-0.7818584
243	0xbf3eee5d	-0.74582464
244	0xbedac566	-0.42728728
245	0x3fa7bc5b	1.3104357
246	0x3f682ee5	0.90696555
247	0xbfce9e6d	-1.6142098
248	0x3eec9043	0.46203813
249	0x3fcdff63	1.6093563

b2 f4 [10]
0	0xbe4e63b3	-0.2015522
1	0x3db3393c	0.08751151
2	0x3d044000	0.032287598
3	0x3e802c74	0.25033915
4	0x3e5d8c58	0.21635568
5	0xbd449a1e	-0.04799854
6	0xbebe390f	-0.37152907
7	0x3d1cdc9e	0.038296334
8	0x3d4ff937	0.05077478
9	0xbbc4ea84	-0.0060094018
